                 from  n    params  module                                  arguments
  0                -1  1       464  models.common.Conv                      [3, 16, 3, 1]
  1                -1  1      2336  models.common.Conv                      [16, 16, 3, 2]
  2                -1  1      2336  models.common.Conv                      [16, 16, 3, 1]
  3                -1  1      9344  models.common.Conv                      [16, 64, 3, 2]
  4                -1  1     16896  models.common.Conv                      [64, 256, 1, 1]
  5                -2  1     16896  models.common.Conv                      [64, 256, 1, 1]
  6                -1  1    295168  models.common.Conv                      [256, 128, 3, 1]
  7                -1  1    295424  models.common.Conv                      [128, 256, 3, 1]
  8                -1  1    295168  models.common.Conv                      [256, 128, 3, 1]
  9                -1  1    147712  models.common.Conv                      [128, 128, 3, 1]
 10[-1, -2, -3, -4, -5, -6]  1         0  models.common.Concat                    [1]
 11                -1  1    295424  models.common.Conv                      [1152, 256, 1, 1]
 12                -1  1         0  models.common.MP                        []
 13                -1  1     16512  models.common.Conv                      [256, 64, 1, 1]
 14                -3  1     16512  models.common.Conv                      [256, 64, 1, 1]
 15                -1  1     36992  models.common.Conv                      [64, 64, 3, 2]
 16          [-1, -3]  1         0  models.common.Concat                    [1]
 17                -1  1      8320  models.common.Conv                      [128, 64, 1, 1]
 18                -2  1      8320  models.common.Conv                      [128, 64, 1, 1]
 19                -1  1     36992  models.common.Conv                      [64, 64, 3, 1]
 20                -1  1     36992  models.common.Conv                      [64, 64, 3, 1]
 21                -1  1     36992  models.common.Conv                      [64, 64, 3, 1]
 22                -1  1     36992  models.common.Conv                      [64, 64, 3, 1]
 23  [-1, -3, -5, -6]  1         0  models.common.Concat                    [1]
 24                -1  1     66048  models.common.Conv                      [256, 256, 1, 1]
 25                -1  1         0  models.common.MP                        []
 26                -1  1     33024  models.common.Conv                      [256, 128, 1, 1]
 27                -3  1     33024  models.common.Conv                      [256, 128, 1, 1]
 28                -1  1    147712  models.common.Conv                      [128, 128, 3, 2]
 29          [-1, -3]  1         0  models.common.Concat                    [1]
 30                -1  1     33024  models.common.Conv                      [256, 128, 1, 1]
 31                -2  1     33024  models.common.Conv                      [256, 128, 1, 1]
 32                -1  1    147712  models.common.Conv                      [128, 128, 3, 1]
 33                -1  1    147712  models.common.Conv                      [128, 128, 3, 1]
 34                -1  1    147712  models.common.Conv                      [128, 128, 3, 1]
 35                -1  1    147712  models.common.Conv                      [128, 128, 3, 1]
 36  [-1, -3, -5, -6]  1         0  models.common.Concat                    [1]
 37                -1  1    263168  models.common.Conv                      [512, 512, 1, 1]
 38                -1  1         0  models.common.MP                        []
 39                -1  1    131584  models.common.Conv                      [512, 256, 1, 1]
 40                -3  1    131584  models.common.Conv                      [512, 256, 1, 1]
 41                -1  1    590336  models.common.Conv                      [256, 256, 3, 2]
 42          [-1, -3]  1         0  models.common.Concat                    [1]
 43                -1  1     65792  models.common.Conv                      [512, 128, 1, 1]
 44                -2  1     65792  models.common.Conv                      [512, 128, 1, 1]
 45                -1  1    147712  models.common.Conv                      [128, 128, 3, 1]
 46                -1  1    147712  models.common.Conv                      [128, 128, 3, 1]
 47                -1  1    147712  models.common.Conv                      [128, 128, 3, 1]
 48                -1  1    147712  models.common.Conv                      [128, 128, 3, 1]
 49  [-1, -3, -5, -6]  1         0  models.common.Concat                    [1]
 50                -1  1    263168  models.common.Conv                      [512, 512, 1, 1]
 51                -1  1   7085056  models.common.SPPCSPC                   [512, 512, 1]
 52                -1  1     65792  models.common.Conv                      [512, 128, 1, 1]
 53                -1  1         0  torch.nn.modules.upsampling.Upsample    [None, 2, 'nearest']
 54                37  1    133120  models.common.Conv_ATT                  [512, 128, 1, 1]
 55          [-1, -2]  1         0  models.common.Concat                    [1]
 56                -1  1     33024  models.common.Conv                      [256, 128, 1, 1]
 57                -2  1     33024  models.common.Conv                      [256, 128, 1, 1]
 58                -1  1     73856  models.common.Conv                      [128, 64, 3, 1]
 59                -1  1     36992  models.common.Conv                      [64, 64, 3, 1]
 60                -1  1     36992  models.common.Conv                      [64, 64, 3, 1]
 61                -1  1     36992  models.common.Conv                      [64, 64, 3, 1]
 62[-1, -2, -3, -4, -5, -6]  1         0  models.common.Concat                    [1]
 63                -1  1     65792  models.common.Conv                      [512, 128, 1, 1]
 64                -1  1      8320  models.common.Conv                      [128, 64, 1, 1]
 65                -1  1         0  torch.nn.modules.upsampling.Upsample    [None, 2, 'nearest']
 66                24  1     33792  models.common.Conv_ATT                  [256, 64, 1, 1]
 67          [-1, -2]  1         0  models.common.Concat                    [1]
 68                -1  1      8320  models.common.Conv                      [128, 64, 1, 1]
 69                -2  1      8320  models.common.Conv                      [128, 64, 1, 1]
 70                -1  1     18496  models.common.Conv                      [64, 32, 3, 1]
 71                -1  1      9280  models.common.Conv                      [32, 32, 3, 1]
 72                -1  1      9280  models.common.Conv                      [32, 32, 3, 1]
 73                -1  1      9280  models.common.Conv                      [32, 32, 3, 1]
 74[-1, -2, -3, -4, -5, -6]  1         0  models.common.Concat                    [1]
 75                -1  1     16512  models.common.Conv                      [256, 64, 1, 1]
 76                -1  1         0  models.common.MP                        []
 77                -1  1      8448  models.common.Conv                      [64, 128, 1, 1]
 78                -3  1      8448  models.common.Conv                      [64, 128, 1, 1]
 79                -1  1    147712  models.common.Conv                      [128, 128, 3, 2]
 80      [-1, -3, 63]  1         0  models.common.Concat                    [1]
 81                -1  1     98816  models.common.Conv                      [384, 256, 1, 1]
 82                -2  1     98816  models.common.Conv                      [384, 256, 1, 1]
 83                -1  1    295168  models.common.Conv                      [256, 128, 3, 1]
 84                -1  1    147712  models.common.Conv                      [128, 128, 3, 1]
 85                -1  1    147712  models.common.Conv                      [128, 128, 3, 1]
 86                -1  1    147712  models.common.Conv                      [128, 128, 3, 1]
 87[-1, -2, -3, -4, -5, -6]  1         0  models.common.Concat                    [1]
 88                -1  1    262656  models.common.Conv                      [1024, 256, 1, 1]
 89                75  1     82432  models.common.RepConv                   [64, 128, 3, 1]
 90                88  1   1312768  models.common.RepConv                   [256, 512, 3, 1]
 91          [89, 90]  1     21186  models.yolo.Detect                      [6, [[10, 13, 16, 30, 332, 23], [36, 75, 76, 55, 72, 146]], [128, 512]]
 92                50  1         0  torch.nn.modules.upsampling.Upsample    [None, 2, 'nearest']
 93                -1  1    590080  models.common.Conv                      [512, 128, 3, 1]
 94                -1  1         0  torch.nn.modules.upsampling.Upsample    [None, 2, 'nearest']
 95                -1  1     73856  models.common.Conv                      [128, 64, 3, 1]
 96                -1  1         0  torch.nn.modules.upsampling.Upsample    [None, 2, 'nearest']
 97                -1  1     18496  models.common.Conv                      [64, 32, 3, 1]
 98                -1  1         0  torch.nn.modules.upsampling.Upsample    [None, 2, 'nearest']
 99                -1  1      4640  models.common.Conv                      [32, 16, 3, 1]
100                -1  1         0  torch.nn.modules.upsampling.Upsample    [None, 2, 'nearest']
101                -1  1       400  models.common.C3                        [16, 8, 1, False]
102                -1  1        74  models.common.Conv                      [8, 1, 3, 1]
/home/xt/anaconda3/envs/xutao/lib/python3.10/site-packages/torch/functional.py:504: UserWarning: torch.meshgrid: in an upcoming release, it will be required to pass the indexing argument. (Triggered internally at /opt/conda/conda-bld/pytorch_1682343995026/work/aten/src/ATen/native/TensorShape.cpp:3483.)
  return _VF.meshgrid(tensors, **kwargs)  # type: ignore[attr-defined]
Model Summary: 424 layers, 15840140 parameters, 15840140 gradients, 108.6 GFLOPS
…
